autoencoder.pth (torch, 82354 bytes, 12 tensors)

encoder.0.weight f4 [16, 3, 3, 3]
000000 2d 29 94 3e 8e a8 dd bc 1a d0 87 be 55 0f b3 3e
       0.28937665 -0.027057912 -0.26525956 0.34972635
000010 cd 8e d3 3d b9 c4 21 be d7 fd fc 3e dd 07 bb 3d
       0.103299715 -0.157977 0.49412414 0.09132359
000020 9f c0 7e bd 54 2a 7a be f0 7c 44 be 1d d6 d5 be
       -0.062195417 -0.2443021 -0.19188285 -0.41764918
000030 c9 29 bd 3d 08 56 0d be 84 b4 e3 be 05 a4 26 3e
       0.092364855 -0.1380235 -0.4447366 0.16273506
000040 29 85 06 be 33 64 06 bf a8 56 dc 3e 0e 58 12 3e
       -0.13136734 -0.5249664 0.43034863 0.14291403
000050 0e c6 51 be 94 02 87 3e 7f 91 8c bd 9e b8 55 be
       -0.20485708 0.26369154 -0.06863689 -0.20871207
000060 ef c1 cc 3e 5f 1a 4b 3e 61 4c 72 3d 32 71 0c bd
       0.3999171 0.19834279 0.05915487 -0.03428764
000070 ea 2b d6 bd 39 40 8f bd ee cf d5 3c 6b 18 ef bd
       -0.10457595 -0.069946714 0.026100125 -0.11674579
000080 51 e0 1c 3d 9f 71 06 bc 28 5c 4b bd 56 d6 a8 3d
       0.038299862 -0.0082058 -0.049648434 0.08244006
000090 8b 7a 21 3d 93 07 5d bd f0 22 11 be d8 32 48 3e
       0.039423507 -0.0539623 -0.14173484 0.19550645
0000a0 38 65 de 3d b2 53 75 3d cc 02 a9 3d be 66 43 3e
       0.1085915 0.05989427 0.082524866 0.19082162
0000b0 00 25 2c 3e da 3a b4 3d 92 0d d4 3d fe 82 6d bd
       0.1681099 0.088002875 0.10354151 -0.057986252
0000c0 16 7c 4c 3e b3 51 b7 3c 6e 64 33 bd 83 12 82 3e
       0.1996921 0.022377824 -0.04379695 0.25404748
0000d0 76 55 ae 3e 32 16 8c 3d 32 00 f1 bb 52 d8 23 3e
       0.34049577 0.06840171 -0.0073547596 0.16000488
0000e0 0e 60 26 3e 84 a0 4a 3e 85 f7 ae 3d c6 1a 98 3c
       0.1624758 0.19787794 0.08543304 0.018567454
0000f0 e3 73 57 3e bc 38 6c 3d 52 ed 6a 3d 21 1e 8b bc
       0.21040301 0.057671294 0.057355233 -0.01698214
000100 08 b3 13 3e 8e cf ab 3c 1e cc 3a be bd 13 64 bd
       0.14423764 0.020972993 -0.18241927 -0.055682886
000110 f8 2d 9f bd 77 26 1d be f6 17 a1 3e f4 89 c4 3b
       -0.0777244 -0.15346704 0.31463593 0.0059978906
000120 ee 14 28 be 44 84 63 be 6b bf 9d be ad bb 6e be
       -0.16414234 -0.22218424 -0.30810103 -0.2331378
000130 39 e1 39 be bf 7c 72 be c4 63 2b 3e 50 8b 50 3e
       -0.18152322 -0.236804 0.16737276 0.20365644
000140 69 d1 1e 3e 64 e8 3a be 43 5b 4f be e9 1b 24 be
       0.15509571 -0.18252712 -0.20249657 -0.16026272
000150 5d af f9 bd b1 2a 26 bf fd c6 89 be 4e 9c d1 3d
       -0.12191651 -0.6490889 -0.2690963 0.10234891
000160 59 76 72 bc ef 24 37 bd 73 3a 08 be 2c 79 04 bc
       -0.014798724 -0.044712957 -0.13303547 -0.00808553
000170 22 5f 16 be 20 61 a4 3d 5c 87 d6 bd bc 98 3b 3c
       -0.14684728 0.080263376 -0.104750365 0.011449989
000180 52 a2 c7 bd 51 f1 88 bd 27 92 9a bc 91 b7 27 3d
       -0.09747757 -0.066866525 -0.018868519 0.040946547
000190 20 10 05 3e 4f 74 ff bc bc 0d c5 bd 24 45 d3 bc
       0.12994432 -0.03118339 -0.0962176 -0.025789805
0001a0 10 81 ef 3d 0d 3b 05 3d 20 b3 83 bd 48 c4 e6 3d
       0.116945386 0.03252702 -0.0643065 0.112679064
0001b0 03 a6 5d be 29 35 e9 3d dd c2 c2 bd c5 54 49 3d
       -0.2164536 0.113870926 -0.095098235 0.04915311
0001c0 6f 5b 10 3e fb 2c 55 be 28 be 57 3e 58 b4 2a 3d
       0.14097379 -0.2081794 0.21068633 0.041675895
0001d0 11 88 a0 bd a1 f8 d0 bd 76 c5 b2 bd 7e 99 9d be
       -0.078384526 -0.10203672 -0.08729069 -0.30781168
0001e0 2f 7a 3d be 33 bc 7c 3d ff e4 8f 3d b0 69 36 3e
       -0.1850364 0.06170292 0.070260994 0.17813754
0001f0 d1 3d 0c 3f f4 d9 8b 3d ce 3d af be f8 68 fa bd
       0.54781824 0.06828681 -0.3422684 -0.122270525
000200 fa a7 e6 be 38 67 bc bd 99 29 28 bd ca 9b b7 bd
       -0.4505003 -0.09199375 -0.041055296 -0.08965261
000210 1d 3e d3 3e aa ef 04 3f 31 a1 c8 3d ee af 2f 3c
       0.41258326 0.519282 0.0979637 0.010723097
000220 4d 9a b0 bd ea e4 18 3e 05 76 da bc 97 ae cd 3e
       -0.086231805 0.14931074 -0.026667604 0.40172264
000230 66 b8 35 3e cc bc da 3d bb ad 69 3e c1 b5 a4 3e
       0.17746124 0.106805414 0.22820179 0.32169917
000240 c4 d7 6a be 1e c1 19 bd be 50 3b be b0 65 d6 3d
       -0.2293387 -0.037537687 -0.1829252 0.10468614
000250 ea 1a dc bc 74 07 2a 3e 20 e8 5a be 09 69 62 3d
       -0.026868302 0.16604406 -0.21377611 0.05527595
000260 8a fa a7 3d 07 32 25 be 55 cf 13 3e 20 b7 be bd
       0.082020834 -0.16132365 0.1443456 -0.09312272
000270 37 29 3e 3e 97 2c 18 3d 86 af 47 3d a6 31 69 3d
       0.1857041 0.0371519 0.048751377 0.056932114
000280 6f 25 40 3d 49 9e d1 3d 17 f9 fd bc 30 dd 63 be
       0.0469107 0.102352686 -0.031002564 -0.22252345
000290 72 02 88 be 5e f8 cf be f3 34 aa be 1d 85 09 bf
       -0.26564366 -0.40619177 -0.33243522 -0.5371874
0002a0 37 b4 3a 3e 60 15 d2 bd 2f 89 d4 bd ef 5f 8b be
       0.18232809 -0.10257983 -0.10377728 -0.2722163
0002b0 e8 c6 c0 3d 95 e7 c4 bd 63 60 90 be 14 c2 d2 bd
       0.09412938 -0.09614483 -0.28198537 -0.10290924
0002c0 eb 10 96 be 3f e6 cc 3c 5b 09 b4 bd c9 2f 22 3d
       -0.29309782 0.025012134 -0.08790847 0.039596353
0002d0 39 25 a0 3d bb bc 2e bd 1f e9 e3 bd a3 c5 78 3d
       0.078196 -0.042660456 -0.11128449 0.060735356
0002e0 fe 98 0c bd 82 3e 17 3d 01 a6 b3 bd 61 bb 83 bd
       -0.034325592 0.036924846 -0.08771897 -0.06432224
0002f0 87 ee 7a 3e 6a b6 52 be cc 9b 3b 3e 33 6d e6 bc
       0.24505053 -0.20577398 0.1832115 -0.028128242
000300 22 20 29 3e 96 ea d5 3d ec 2c 9d bd c8 0e 3a 3c
       0.16516164 0.10445134 -0.07674584 0.011356063
000310 aa a9 df bb 86 c7 4a be ee c2 de 3d 73 f9 91 3e
       -0.0068256455 -0.19802675 0.10877024 0.28510627
000320 e2 ae 02 3d dc c8 15 3d a7 3d f3 3c 82 a7 e4 bd
       0.031905062 0.036568508 0.029692484 -0.11164762
000330 03 ac 46 bd 87 85 6d 3d df 05 62 3d 1f 91 6a 3e
       -0.048503887 0.05798867 0.05518138 0.22906922
000340 78 fd 88 3e 45 fa 4f 3e 70 7b 8c 3e e0 6e d5 3d
       0.2675588 0.20310314 0.27437925 0.10421538
000350 e0 b3 4f 3e e9 2c 62 be 82 76 df bd 7a 87 53 bd
       0.2028346 -0.22087444 -0.109112754 -0.051642872
000360 9a c4 96 3e 4f 13 15 3e ce fd b8 3d 88 01 d0 bd
       0.2944687 0.14558147 0.090327844 -0.10156542
000370 28 49 89 3c 4d a6 1e be a8 5f 70 be 8f df ba be
       0.016758516 -0.15493126 -0.2347399 -0.36498687
000380 77 54 bd be 3a 21 ec 3e 01 55 c1 3e 0b 6c 38 3d
       -0.36978504 0.461191 0.37760165 0.045024913
000390 ad 2b d0 3e 18 02 62 bd 64 99 19 3e 82 0d 72 3e
       0.40658322 -0.055177778 0.1499992 0.23637965
0003a0 c6 87 16 bd 42 53 7e be f6 a6 ab 3e 8b 84 87 3d
       -0.036750577 -0.24836448 0.3352582 0.066170774
0003b0 d3 d7 63 bd a4 2b 8b bd bd 98 f6 bd 95 6d 7b be
       -0.055625748 -0.06795433 -0.12040851 -0.24553521
0003c0 e6 3e 22 bd f6 ce bf be be 4d 4f be e4 c2 8c 3d
       -0.039610766 -0.37462586 -0.202445 0.0687311
0003d0 21 17 2b be 26 e6 f4 bd 06 57 cf bc c2 3f 9d 3e
       -0.16708042 -0.1195796 -0.02531005 0.30712706
0003e0 de ac 46 3e 4e 9f 2c 3e f5 46 87 3e fd 3f 34 3e
       0.19401881 0.16857645 0.26421323 0.17602535
0003f0 2b 54 78 3d ea 34 95 3c 12 85 13 3e f6 e4 ab bc
       0.060627144 0.018213708 0.14406231 -0.0209832

encoder.0.bias f4 [16]
000000 7e c8 4c 3d 9c c7 3c bf ee fa 04 3b 46 c6 22 3f
       0.04999589 -0.7374208 0.0020291167 0.6358379
000010 ba 55 ec 3a 58 a5 5d bf 03 70 08 3f 87 d1 f9 be
       0.001803092 -0.8658042 0.53295916 -0.4879267
000020 d7 b8 7c 3d 57 31 2d bf 46 9f 83 be ac ee a1 3e
       0.061699715 -0.6765341 -0.25707453 0.31627405
000030 85 46 fc be 5b 58 8d bf 87 5a 56 bf e2 fe ea 3e
       -0.49272552 -1.1042589 -0.83731884 0.45897585

encoder.3.weight f4 [32, 16, 3, 3]
000000 86 46 9d 3c 45 0a 94 3d f7 11 e8 3c 3a f6 57 3d
       0.019198667 0.07228521 0.028328879 0.052725054
000010 fe 87 a5 3d 78 d2 f8 3a 20 1c a1 3b ee 71 92 bb
       0.08082579 0.0018983623 0.004916683 -0.004469148
000020 d8 41 fb bc 68 7d 3e 3c be 4b 19 be 8d c8 f0 bf
       -0.030671045 0.011626579 -0.149703 -1.8811203
000030 63 6a 50 3d d1 a8 ae be 37 9b f7 bf 57 4c 89 3e
       0.05088271 -0.34113172 -1.9344243 0.26816055
000040 bc 19 d8 3e 3e ce 7a 3e 87 bf 21 3d fd 99 56 3d
       0.42207134 0.24492738 0.039489295 0.05239295
000050 3b 83 3e 3c de 94 78 3d 49 98 fe 3d 96 0e c1 3d
       0.0116279675 0.060688846 0.1243139 0.0942661
000060 c3 dc 31 3d 07 76 e2 3d 5c a6 d4 3d 01 eb ae 3b
       0.043423425 0.11057668 0.10383293 0.0053380732
000070 f2 ee e4 bb d4 66 a5 bb 95 bc 49 3d ed 7d db 3c
       -0.0069864923 -0.0050476585 0.04925211 0.026793445
000080 8a 05 ac 3c 9a 95 3c 3d 20 ec 66 3d f4 32 10 3d
       0.020998735 0.04604111 0.05637753 0.035204843
000090 0e e1 81 bd 38 42 3e be a7 f1 65 be bd ca 3c 3d
       -0.06341754 -0.18579948 -0.22455464 0.046091784
0000a0 92 3e 94 3c 99 97 8a bd 0f 3b d9 3d a3 61 0d 3e
       0.018096242 -0.06767196 0.10606968 0.13806777
0000b0 e3 fb 5e 3d 16 30 55 3d 7c 78 18 3d f9 03 a8 3c
       0.054439437 0.05204781 0.037224278 0.020509707
0000c0 54 de 08 be ab 76 0f bd 16 4a e3 bc 24 f7 4c 3d
       -0.13366061 -0.03502528 -0.027745288 0.05004038
0000d0 07 ae 08 3e 45 b2 0c 3e 3e dc c4 bd 1e 45 db bd
       0.13347636 0.1373988 -0.0961232 -0.107065424
0000e0 60 ee 35 bd 70 74 93 bd f9 13 ce bd 17 d8 2e 3c
       -0.044416785 -0.07199943 -0.10062403 0.010671637
0000f0 3a 60 94 bd f8 6a c5 bd 8b 3a a6 bc a8 0b 32 3e
       -0.07244916 -0.09639543 -0.020291587 0.17387259
000100 dc 89 88 bd ac 97 8d be cf 2a 6d 3c 1a 51 bd bf
       -0.066669196 -0.2765478 0.014475538 -1.4790375
000110 82 10 54 c0 63 19 5d bd d6 6a c9 bf aa dc 8f c0
       -3.3135076 -0.05397929 -1.5735729 -4.4956865
000120 e0 92 5d bc 1f ed 35 bd cf 42 1e bc 5e e7 37 3c
       -0.013523787 -0.04441559 -0.009659483 0.011224596
000130 25 30 19 bd 6e ef 69 bd cb a4 39 3c af 92 71 bd
       -0.03739943 -0.057113104 0.011330794 -0.05897778
000140 83 f6 79 bd 60 2e 2b 3d b8 de d6 3b dd f1 41 bd
       -0.061026108 0.041792274 0.006557312 -0.0473498
000150 81 8f 9e bc c9 1f ac bd a7 91 3c bd de 70 7c 3c
       -0.019355537 -0.084045 -0.046037342 0.015407769
000160 26 f7 75 bc 35 f9 cf bc 7f 7f a1 bd 64 16 89 be
       -0.015012538 -0.025387386 -0.07885646 -0.26774895
000170 f0 6e 7f be 73 30 5c be 92 58 f5 be bb 9c ca be
       -0.24944663 -0.21502857 -0.47919136 -0.395727
000180 4d 5b e8 bd 09 ad 91 be 1b f8 65 be 47 6a 87 3c
       -0.11345539 -0.28452328 -0.22457926 0.01653017
000190 f4 b2 fe 3c 35 4f 0e 3d cd 80 78 3d f9 a4 e4 3d
       0.03109119 0.034743506 0.06066971 0.111642785
0001a0 44 e5 90 3d 83 75 43 3d 73 9c ab 3d 4f b1 45 3d
       0.07074979 0.04771949 0.0837945 0.048264798
0001b0 52 55 0f 3d 02 33 96 3c ec 52 c8 bc 73 56 8c bc
       0.034993477 0.01833487 -0.024453603 -0.017131066
0001c0 d0 02 e3 bc 3a 13 02 bd a0 df 81 bd d8 5f 81 bd
       -0.027711302 -0.031756617 -0.06341481 -0.06317109
0001d0 ba 96 8a bd 28 6a 0f 3e 42 20 af 3c 3a 98 0c 3a
       -0.0676703 0.14005339 0.021377686 0.00053632597
0001e0 78 61 1d 3a 8b 13 38 be 81 ad e7 bd 70 3c 06 3e
       0.00060035987 -0.17976205 -0.1131239 0.13108993
0001f0 55 19 fa bc 89 5a 9a bd 05 f2 36 3d 2d 55 7e be
       -0.030529657 -0.075367995 0.0446644 -0.2483718
000200 44 aa 62 be f0 13 c9 3e 45 fc 9d be d5 ab 62 bf
       -0.22135264 0.39273024 -0.3085653 -0.88543445
000210 bb c3 aa 3d fb 8f 47 3c 42 7a 73 3d 1c 90 28 be
       0.08338114 0.012180324 0.059442766 -0.16461223
000220 37 8f d4 3b f5 0b 49 3e 61 86 10 bd 31 69 f9 3e
       0.006486799 0.19633467 -0.035284404 0.48713067
000230 ac 00 40 3f ea 58 11 3d ed 11 d1 3e cd 32 13 3f
       0.75001025 0.035485186 0.4083399 0.5749939
000240 ac b5 43 3e 88 d8 c3 3e 42 64 1d 3e 4c f7 7d 3e
       0.19112271 0.38251138 0.15370277 0.24801368
000250 2d 8f 31 3f 3e 56 ae 3e 1e 2f ef 3d 6d f6 fa 3e
       0.69359094 0.34050173 0.11678909 0.49016133
000260 fb b8 95 3e 12 0e 35 3d e6 84 23 3d 03 73 57 3c
       0.2924269 0.04420287 0.039921664 0.0131499795
000270 44 fd 68 3c 72 3a 09 3d b6 09 c3 bc 52 0f 06 bd
       0.0142205395 0.033503003 -0.023808341 -0.032729454
000280 bd 51 37 3c 30 ba c9 bc 3b cb 3f 3d 26 50 b9 3d
       0.0111889215 -0.024624914 0.046824675 0.0904849
000290 dc bd 39 3d cf df 78 3d 73 80 ac 3d 51 d2 06 3d
       0.04534708 0.060760316 0.08422937 0.032915417
0002a0 fd d2 ca bc a2 2f 59 bc 18 0b c6 3b ce 2f d8 bc
       -0.02475881 -0.013255985 0.006043803 -0.026389983
0002b0 dd e0 b6 bc 0e d9 b0 bd b6 ec 1e bd da 20 7d 3d
       -0.02232402 -0.0863515 -0.038799964 0.061798908
0002c0 34 c9 e8 3d 66 b9 ff 3c 68 1b 23 3e 6b 44 83 3e
       0.113665015 0.031216335 0.15928423 0.25638136
0002d0 a2 eb 2b 3e 98 f6 86 3e c5 92 88 bd c9 dc 8c 3d
       0.16789106 0.2636001 -0.06668619 0.06878049
0002e0 1e 47 8e 3d c8 4f 0b be 24 3c b6 bd 2c 0a 8c bd
       0.06947158 -0.13604653 -0.0889819 -0.06837878
0002f0 d2 8a 08 be 08 51 76 3e 27 77 4c 3e d2 83 aa 3d
       -0.13334206 0.24054348 0.19967328 0.08325924
000300 06 8a b4 3e 82 9e 68 3e 1d 42 86 3d 1a fb d7 3d
       0.35261554 0.22716716 0.06555579 0.10545941
000310 82 9b 1c 3e 31 28 84 3d 3c 20 85 bc 8d 59 ce 3d
       0.15293697 0.064529784 -0.016250722 0.10075674
000320 b0 f6 8d bd ab 99 9c be 62 8c 77 3d b0 af a0 3e
       -0.069318175 -0.3058599 0.060436614 0.3138404
000330 e2 79 92 be e7 c4 a1 bb 99 e5 d4 3e 0a 4a ed bc
       -0.28608614 -0.0049368027 0.4158142 -0.028965969
000340 10 d6 91 3c 2f 59 74 3d f6 7e 02 bd c1 b2 fb b9
       0.017802268 0.059655365 -0.03185936 -0.00048007633
000350 fb 38 9b 3c 9e d7 cd bc 5f e1 22 bb 36 52 da bc
       0.018948069 -0.025127228 -0.002485357 -0.02665053
000360 63 49 02 bf 3d 6b b1 be ce a5 50 3d 45 71 86 bf
       -0.5089323 -0.3465213 0.050939374 -1.0503317
000370 b7 9f 11 bf 57 be 8f be f3 65 60 be cf 6e 12 3c
       -0.5688433 -0.28074905 -0.2191389 0.008937552
000380 7d 4e 23 be b9 d2 6d bd d8 d5 4e bd 2f cc 54 bc
       -0.1594791 -0.05806229 -0.050496906 -0.012988134
000390 5b 88 2b bd 22 88 bf bd 28 93 66 bd 04 cb ff bd
       -0.041878086 -0.09352137 -0.056292683 -0.12489894
0003a0 44 aa 11 be 81 89 43 bd 7d e1 d4 bc 7c b1 4e 3d
       -0.14225107 -0.047738556 -0.025986427 0.05046223
0003b0 f4 f0 20 3d 00 32 2d bd 19 14 d4 3b 26 02 3e 3c
       0.03929229 -0.04228401 0.0064721224 0.011597192
0003c0 7a cc 29 bd a2 cc 1e bd c1 83 4e bb d8 b7 f0 3b
       -0.04145477 -0.03876937 -0.0031511637 0.0073461346
0003d0 fc 5c b9 3d a8 ce e8 3d 92 2e 3f bd 61 80 cc 3d
       0.090509385 0.113675416 -0.046675272 0.09985424
0003e0 32 c3 19 3e 67 50 0d 3e 98 35 75 3e 8f 0e 12 3e
       0.15015867 0.13800202 0.23946226 0.14263366
0003f0 e9 0d 11 bd b4 89 54 3c a0 31 a1 3d 7d b5 7c bc
       -0.035413656 0.012972284 0.07870793 -0.01542413

encoder.3.bias f4 [32]
000000 73 9e 74 3e 73 1f 87 be 98 28 18 bd 15 45 40 bf
       0.23888569 -0.2639118 -0.03714809 -0.7510541
000010 c0 58 e3 bb a2 ed 9c bd a0 ab 84 bf 7d 3e 6f bf
       -0.00693807 -0.07662512 -1.0364876 -0.93454725
000020 07 fa 90 3c 85 39 8d bc 9e 99 91 bd 55 e9 26 3e
       0.017697347 -0.017239342 -0.07109378 0.16299947
000030 c6 69 52 bd bc 3e 33 be e4 2c 3f be e3 80 15 3c
       -0.051370405 -0.175044 -0.18669468 0.009124967
000040 94 44 3f be 90 de b2 bf 85 42 14 be bf 35 93 bf
       -0.18678504 -1.3974171 -0.144785 -1.1500777
000050 42 bc 63 3e f6 2d 81 be fa 1b 23 3c f5 a1 0e bf
       0.22239783 -0.25230378 0.009955401 -0.55715877
000060 9d e4 d6 be ae 2e 22 3e e9 a9 8e be 57 3c 59 bd
       -0.41971293 0.1583812 -0.27864006 -0.05303606
000070 5f 78 8c 3e f3 ed 3b bd 44 40 b7 bd 5b 4b 11 bd
       0.27435586 -0.045881223 -0.089478046 -0.035472255

encoder.6.weight f4 [16, 32, 3, 3]
000000 63 3c 0f 3d 86 77 6e 3d f2 e8 9b 3c e9 23 58 3d
       0.0349697 0.058219455 0.019031975 0.05276862
000010 fa 67 c9 3d 66 c3 74 3d 38 f6 81 bd d8 9e b5 bd
       0.09834285 0.05975666 -0.063457906 -0.08868188
000020 5a 2b 82 bc 15 4f 36 bd 8f ca b9 bb 58 38 95 bb
       -0.015889812 -0.044509012 -0.005669899 -0.004553836
000030 38 6f cd bd d3 99 32 be f6 e2 af bd 8a c4 84 bd
       -0.10030979 -0.17441492 -0.08588211 -0.06482799
000040 7a 7d 30 bd 3a eb 53 bd 13 c2 56 bd 9c c3 83 3e
       -0.043088414 -0.051738 -0.052431177 0.25735176
000050 da ac 77 3e c2 c5 4c 3d f0 e8 0e 3e 30 2b ab 3e
       0.24187031 0.049993284 0.13956046 0.33431387
000060 13 0f ad 3c 90 3f d7 3d 15 aa 9e 3e 1d 9d df 3d
       0.021125352 0.105101705 0.30989137 0.10918639
000070 33 e1 12 3e 8c a9 68 3e 57 2d 46 bc ab d2 db bd
       0.14343719 0.22720927 -0.012095771 -0.10733541
000080 11 16 f9 bc 01 74 94 be 7f 47 cf be 38 6a a4 be
       -0.03040603 -0.28994754 -0.40484235 -0.32112288
000090 fa 4c 42 3d ce e8 2c 3d 7c 1a 75 3c 7c af 8a bb
       0.04743669 0.042214207 0.014959928 -0.004232345
0000a0 79 41 bf bc 19 23 25 bd f1 11 a2 bc 56 e8 37 bc
       -0.02334665 -0.040316675 -0.019783946 -0.011224827
0000b0 ee 8b b8 bd 4c bc e9 bc ae ea 2f bd 85 7e b5 bc
       -0.090110645 -0.02853217 -0.042948417 -0.022155056
0000c0 76 cb 53 bc f5 4d 1e bd 44 df f3 bc 57 36 6d 3d
       -0.012926927 -0.038648564 -0.029769547 0.05791315
0000d0 6f 40 92 3d b5 5e 13 3d fb 3f c7 3d fd 89 f9 3d
       0.07141196 0.03597899 0.09729 0.12184522
0000e0 89 0f eb 3c 60 bf e3 3d b2 29 15 bc 3b 76 90 bd
       0.028693931 0.11120486 -0.009104179 -0.07053801
0000f0 81 01 8a be 25 88 cf be 40 9f a9 be c3 bb 24 bd
       -0.26954272 -0.40533558 -0.3312931 -0.040218126
000100 ae 68 6b bd b4 1e 7e bd c4 23 b5 bd 32 d8 17 be
       -0.057472877 -0.062041 -0.088447124 -0.14828566
000110 43 b4 1e be f1 af 5d 3d c4 db c1 bc bf 99 3c bd
       -0.15498452 0.05412287 -0.023664363 -0.04604506
000120 be 53 3d bd da 4e 5e bd c9 bf 03 3c a7 0a eb 3a
       -0.04622244 -0.054274417 0.008041331 0.0017932252
000130 c9 6e de 3c 01 81 ba 3d 38 95 c5 3c 48 41 f0 3c
       0.027152436 0.09106637 0.024119005 0.029328004
000140 38 32 db 3d ff 7c 21 3d 4f ea 30 3d 71 97 53 3c
       0.10702938 0.039425846 0.043192204 0.012914524
000150 5b f4 0d 3d e4 71 0a 3d 8e b5 c2 ba 72 4d e7 bb
       0.034656864 0.03380002 -0.0014855133 -0.0070587927
000160 40 1a 29 bb 59 3c 89 bd 6c 71 03 3c 56 4f 95 bd
       -0.0025803 -0.067009635 0.008022647 -0.07290523
000170 bd 88 b1 3d d9 96 6f bd 87 a4 6d bd 0d 61 51 3e
       0.08668659 -0.05849347 -0.058018234 0.20447178
000180 b1 4f 8a 3c dd e7 52 3e 02 3c fa 3d 69 f3 13 bc
       0.016883703 0.20596261 0.12218477 -0.0090302015
000190 6b f4 1e 3d 9f e3 a4 3b e4 fc 47 bd a3 45 a5 3c
       0.038807314 0.0050320174 -0.04882516 0.020174807
0001a0 68 03 95 3c 8e 19 d7 3a 0c f8 32 bd 7c 44 1e 3e
       0.0181901 0.0016410814 -0.043693587 0.15455812
0001b0 d2 ab 04 3b e5 48 84 bc ac 13 dd bc 6f de aa 3d
       0.0020244014 -0.01614804 -0.02698692 0.08343207
0001c0 88 69 6f 3d 6d c3 9e 3c 77 2b 3c 3b 4e fb 70 3c
       0.05845025 0.019380296 0.002871243 0.014708353
0001d0 33 e9 ae bd 91 7e 39 3e 6e 16 88 3e b9 ab 19 3e
       -0.08540573 0.18114688 0.26579612 0.15006913
0001e0 ff 37 a4 3e 9c d2 b8 3e 21 fb 6f 3e a9 a8 21 be
       0.32073972 0.36098182 0.23435642 -0.15786995
0001f0 d4 b6 15 be f6 fa 2d be 8a 85 af 3c 16 ac 12 3d
       -0.14620525 -0.16990265 0.021425981 0.035808645
000200 30 5a 42 3c 43 06 88 3d 0a a7 c4 3d d6 d6 4f 3d
       0.011862323 0.06641819 0.09602173 0.050741993
000210 32 de ea bc 9b e9 05 3d ec 1e a9 bd 57 a5 0d 3e
       -0.028670404 0.032693487 -0.08257851 0.13832603
000220 67 74 35 3e a8 e9 d4 3d f2 a6 79 3e e4 9a bb 3e
       0.17720185 0.10396129 0.24380091 0.3664161
000230 4c 46 69 3e f1 cc 06 3e e5 14 30 3e 9b 5e 03 3e
       0.22780722 0.13164116 0.1719547 0.12829058
000240 77 6e 8d bc da e1 81 3b 94 2e d8 3c 57 08 f4 bc
       -0.017264588 0.003963691 0.026389398 -0.029789133
000250 f0 7a d5 b9 19 f1 76 3c 49 d6 05 3d be d2 4e bc
       -0.0004071812 0.015072131 0.03267506 -0.012623487
000260 4e 79 17 3e 59 95 53 be ba 3a 54 3d 74 b1 ae bd
       0.14792368 -0.2066244 0.05181382 -0.0852994
000270 a9 ea 9b 3e 40 02 25 3f 64 45 8a 3e 25 d0 01 bd
       0.3045247 0.6445656 0.27006066 -0.031692643
000280 01 cf a9 3e 7c 2b f8 3c 79 6d 12 bd 53 0e b1 bd
       0.33165744 0.030294172 -0.035748933 -0.0864531
000290 fd f6 26 bd 2c 0b 8c 3e 97 bb 9c 3e 06 41 34 3e
       -0.04076289 0.27352273 0.3061187 0.1760293
0002a0 9e c5 b1 bc dd a1 04 3d 4b 99 11 3e d1 76 52 3d
       -0.021700677 0.032380927 0.14218633 0.051382843
0002b0 c0 f2 5e bb ce d4 1f bc 92 fc 0c be 4d fc 50 be
       -0.0034019202 -0.009755326 -0.13768223 -0.20408745
0002c0 17 13 4e be 10 a5 78 3e 1f 8c b1 3e 7f 1d 37 3e
       -0.2012447 0.24281716 0.34677216 0.17882346
0002d0 c6 7d 93 3d 46 f5 de 3d fd 92 69 3d 51 75 9e 3d
       0.07201724 0.10886626 0.057024945 0.0773722
0002e0 70 de d5 3d 32 b3 a4 3d ca ad 95 bd 6e 69 ee bd
       0.10442817 0.08041991 -0.07308538 -0.11641203
0002f0 49 7e 1b bd ff 06 a3 bb de 4a b3 bc 8f 12 68 3d
       -0.03796223 -0.0049751992 -0.021886285 0.056658324
000300 14 63 4b 3c d4 08 03 3c a1 29 ee 3d cb 4c c9 3d
       0.012413759 0.00799771 0.11629034 0.098291
000310 dc a8 76 3e ec d6 19 3e 60 2c 76 3d d8 82 f8 3d
       0.24087852 0.15023392 0.060100913 0.121343315
000320 1c 84 16 bc 5c c1 4c 3e 1e 09 82 3e 8e 44 37 bc
       -0.009186771 0.19995636 0.2539758 -0.011185778
000330 c1 65 3a 3d 6d 9e 2d 3d 28 e1 b1 3d f8 33 ac bc
       0.045507196 0.042387415 0.08685523 -0.021020874
000340 5d b7 e7 bd 5a 32 63 bd 41 4d cb bd 5b 36 14 be
       -0.11314271 -0.05546794 -0.099268444 -0.1447386
000350 ee 0f a4 3c fa 32 95 3d 11 76 bf 3e 5b 2e 83 3d
       0.020027127 0.07285114 0.37394765 0.06405326
000360 e6 9d d9 bc 99 5a eb bc e0 f9 08 bd bd 27 6d bc
       -0.02656455 -0.028729724 -0.033441424 -0.014474806
000370 f2 95 c8 bc 62 1d e0 bc bd 1a 82 3d 14 89 52 3d
       -0.024485562 -0.02735776 0.06352756 0.05140026
000380 4b d3 df 3c f7 aa 95 3c e7 bf 4a 3d 56 67 d8 3c
       0.027322432 0.018269999 0.04949942 0.026416462
000390 a5 bd 3a 3d bd 32 d9 3d be eb 92 3d 7c c2 d7 bd
       0.045591015 0.10605381 0.071738705 -0.10535142
0003a0 ae db f9 bd 10 4d c1 bc 76 55 90 3c 04 dc 85 bb
       -0.12200104 -0.023596317 0.017618876 -0.004085066
0003b0 61 db 99 3c 1e e7 2e bc cd c5 3d bd 34 b4 12 3c
       0.018781366 -0.01067522 -0.046331216 0.008954097
0003c0 f9 b4 3d 3d 49 e8 d3 3d a6 b7 4c 3d 40 75 33 3c
       0.046315167 0.10347039 0.04997983 0.010953248
0003d0 c2 63 be 3c ee 71 37 3a d6 68 71 3d e9 79 71 3d
       0.023240928 0.0006997873 0.05893787 0.058954153
0003e0 5c f0 68 3d 65 1b 96 bc 67 17 40 3d a7 3d 92 bd
       0.05686985 -0.01832361 0.04689732 -0.071406655
0003f0 0d 45 b0 ba 48 d7 d9 3c 92 90 a2 bc cf 46 5c bc
       -0.0013448313 0.026591912 -0.019844327 -0.013444616

encoder.6.bias f4 [16]
000000 5a 67 80 3d f4 42 c3 3c 6c 21 15 3e d9 ef f7 3d
       0.06269713 0.023835637 0.1456353 0.12106294
000010 2a 4c a1 bb 6c 4f 93 bc 94 86 c8 bd d0 54 33 3e
       -0.0049224095 -0.017982207 -0.09791294 0.17512822
000020 24 53 e8 bb e2 1b 45 3d 56 9a 0b 3e b7 e5 b2 3c
       -0.0070899893 0.048122294 0.13633093 0.021838052
000030 3d 5e 71 3d 61 a8 c7 bb f5 7f 7a bd 64 a0 2e bb
       0.058927763 -0.0060930704 -0.061157186 -0.0026645893

decoder.0.weight f4 [16, 32, 3, 3]
000000 06 37 3f 3e 64 56 e3 3d 60 35 d1 be 8f f0 1c bf
       0.18673334 0.11100462 -0.40861034 -0.61304563
000010 c8 52 65 bd 74 ac 78 3e 0c 2f 5e 3e fe 98 2c bd
       -0.05598715 0.24284536 0.21697634 -0.042138092
000020 c2 30 7b be 60 cf 1b bf f7 b4 9f bd 1f 38 d3 bd
       -0.24530318 -0.60863304 -0.07798188 -0.103134386
000030 8c 29 ab 3e e4 18 e2 3e 6c 36 5d 3e 05 06 bc 3b
       0.33430135 0.44159615 0.21602792 0.0057380223
000040 dc 5a f2 bb 72 1c 10 be c6 ae c7 bc e1 c8 5a bc
       -0.007396085 -0.14073351 -0.02437533 -0.013353557
000050 8f 3f f4 bc cb 5c fe bb 70 30 03 3c 53 06 86 bd
       -0.029815463 -0.0077625266 0.008007154 -0.06544175
000060 e9 69 50 3d eb be 24 3d e0 31 88 3e a9 cd 81 3a
       0.050882254 0.040221136 0.26600552 0.000990321
000070 0c 8e ac bd e3 1d f7 bd 50 51 70 bd 60 79 83 3a
       -0.08425531 -0.12066247 -0.058671296 0.0010030679
000080 c6 9f 1c be 63 20 7c 3b d7 a6 38 bd 30 0d 48 be
       -0.15295324 0.0038471452 -0.045080986 -0.1953628
000090 a3 d4 68 bd 69 dc 61 bd 2a c3 59 3e 48 40 04 bd
       -0.05684341 -0.05514184 0.21265855 -0.032287866
0000a0 9d 95 68 bc 0a 42 4e bc b2 5e 1b 3e a6 ac 57 bc
       -0.014195827 -0.012588987 0.15172842 -0.013163721
0000b0 04 d0 5e 3e 74 34 25 3c 77 57 93 3d a0 1f e1 bc
       0.21759039 0.010083307 0.07194417 -0.0274809
0000c0 bf 99 d2 bc d1 66 00 3d db 02 f8 3c 3e 5e c4 bd
       -0.025708077 0.031348053 0.0302748 -0.09588288
0000d0 a2 c3 18 be e7 67 36 be 86 7c 03 ba eb c5 39 bc
       -0.14918378 -0.17813073 -0.0005015809 -0.011338691
0000e0 e7 69 a7 3c 39 31 74 3d 3b a9 ba 3d 65 7e 51 3e
       0.02043624 0.059617255 0.091143094 0.20458372
0000f0 de 53 52 bd 40 3b 00 bb c5 7b cc bd 99 d0 a5 3d
       -0.051349513 -0.0019566566 -0.09984545 0.080964275
000100 69 05 a2 bd 77 57 ce be 9f 5a 03 3c ce 9e b4 be
       -0.07911188 -0.40301105 0.008017211 -0.35277408
000110 7d 4f 42 bf 2c 54 be 3d af 06 99 be 39 f9 18 be
       -0.7590254 0.09293398 -0.29887912 -0.14938821
000120 41 10 b6 be 5f 30 e2 be 6e 57 6d be a4 36 41 be
       -0.35559276 -0.4417753 -0.23177883 -0.188685
000130 ef 09 32 be 12 5d c7 bc ad 10 2a bf 96 04 b2 be
       -0.17386602 -0.024336372 -0.66431695 -0.34769124
000140 25 e3 81 be ba 9c 1b 3d b3 20 58 3b f7 e4 59 be
       -0.2536861 0.037991263 0.0032978475 -0.2127875
000150 fd a3 f7 3d 04 6d e9 3d 10 2c cb 3c c6 aa 13 be
       0.12091825 0.11397746 0.024801284 -0.14420614
000160 28 ee 91 be c8 c9 9b be 9d 18 9b bd 93 df 0c 3e
       -0.2850201 -0.30427384 -0.07573054 0.13757162
000170 ac ae d3 3e 1c d2 bc bd b1 ee 12 3e b2 c7 a4 3e
       0.41344202 -0.09219763 0.14348866 0.32183605
000180 1d e3 5d bc 77 8f 8c 3e 2b 3f ad 3e f7 0f f9 bc
       -0.013542918 0.27453205 0.33837256 -0.03040312
000190 59 9f fe bc 92 3d 4c bd cf f0 76 3c dd 03 9a 3c
       -0.031081842 -0.049863406 0.015072062 0.01880067
0001a0 2a d4 17 3d 3d 0a c6 bc 1f fe af bc 50 7d 35 3c
       0.03706757 -0.024174804 -0.021483479 0.01107724
0001b0 11 1d 83 bd c3 09 af 3c 24 77 81 bc e1 5f ac bd
       -0.06402028 0.02136696 -0.015803881 -0.08416725
0001c0 9c 28 20 3d 58 7f 1d be b9 c6 74 bd fd de fb bd
       0.039101228 -0.15380609 -0.05975983 -0.12298391
0001d0 7c 24 ad 3d 14 8c 3a bf b7 ab 7e 3e bd 2c 44 be
       0.084542245 -0.7286999 0.24870192 -0.19157691
0001e0 7e ab 8f 3c d0 80 97 be 30 1a 94 bc 2e 81 84 bd
       0.017537829 -0.29590464 -0.018078893 -0.064699516
0001f0 01 84 48 bc 60 1f 93 be 45 ed d8 bb ef af 24 3d
       -0.012238503 -0.28734875 -0.0066200816 0.040206846
000200 6e cf d4 bc b3 9e b0 3d 7f 35 55 3e ad 76 94 3d
       -0.025977816 0.086240195 0.20821188 0.07249198
000210 23 ec 95 bd 86 b5 2c be b9 ad 45 3d 1c 9f 4e bd
       -0.0732043 -0.1686612 0.048261378 -0.050444707
000220 47 0f f0 bd 09 b8 86 bd 32 f7 a3 bc 84 c2 07 be
       -0.11721664 -0.06578071 -0.020015333 -0.13257796
000230 1f 6d 50 3c 5d 4b 4e 3b 69 ef 20 3e 61 56 d7 bd
       0.012721329 0.0031478025 0.15716328 -0.10514522
000240 bf dd 12 bd 0e d2 2d bd 85 34 1e bd e2 9f ef bc
       -0.035856005 -0.042436652 -0.038624305 -0.029251043
000250 91 d0 38 3a e2 80 59 bd e4 d1 c3 3d 7a da 85 3d
       0.0007050122 -0.053101428 0.09561518 0.06535812
000260 cb ff b4 3e 37 33 5d 3e bb 1a 1d 3e 39 3b f7 bd
       0.35351405 0.21601568 0.15342228 -0.12071843
000270 d9 64 17 3e 49 62 8a 3d 68 de 29 be 52 c1 25 3e
       0.14784564 0.06757028 -0.16588748 0.16187027
000280 57 26 03 3e 33 9d 07 be b3 65 15 be 6e 56 0d bd
       0.12807594 -0.1324356 -0.14589576 -0.034506254
000290 90 08 80 bd 61 c7 9b 3d f6 4a 81 3e f4 a0 ec 3d
       -0.06251633 0.07606388 0.25252503 0.11554137
0002a0 67 00 39 be 0c 38 0d be bd 90 0c 3e f6 a9 60 3d
       -0.1806656 -0.13790911 0.13727088 0.054849587
0002b0 fe aa d0 3d b2 3e 19 3b 74 97 ff 3c 7c 67 4f 3c
       0.10188864 0.0023383317 0.031200148 0.01265895
0002c0 85 f8 82 3d b1 14 69 3d e4 5e 2d 3e 51 8d bb bc
       0.063950576 0.0569045 0.16930729 -0.022894533
0002d0 ad 66 71 3d 91 81 4d 3e 30 c4 22 3e c9 0b d8 3d
       0.05893581 0.20068957 0.15895152 0.10549123
0002e0 ce 90 8c 3e 72 de 59 3e e9 3f 82 3c cf 13 80 3d
       0.27454227 0.21276262 0.015899615 0.06253778
0002f0 98 be a3 3d fc 18 57 3d bc 81 a2 3d 28 cb 8b 3d
       0.07995337 0.05251406 0.07934901 0.06825858
000300 14 e6 80 bd 64 5c c7 3b 6e 71 72 3d f0 12 3a bd
       -0.06293884 0.006084012 0.059190206 -0.045428216
000310 94 27 e4 3c 4b a6 58 be b9 36 00 bd 7d 14 90 bd
       0.027850904 -0.21157186 -0.031302188 -0.07035158
000320 f6 f8 02 bd 0b cf a6 bc 5f 5a 0e be f3 01 4b bc
       -0.03197571 -0.020362398 -0.13901661 -0.012390601
000330 61 0b 79 3d be fe 04 3e 6b a8 eb 3c e0 71 cc bc
       0.060801867 0.12987801 0.028766831 -0.024956644
000340 57 e6 97 bf aa fd c3 bb 13 89 c1 3b 6b 38 fd bd
       -1.1867169 -0.005981167 0.005906233 -0.123642765
000350 67 33 2d bd 7e 48 9c 3d b8 5d d5 3b 57 fb 91 3c
       -0.04228535 0.07631014 0.0065114163 0.017820043
000360 97 89 c7 bd 08 c2 f0 bd ed c3 9b bd 4d 57 01 be
       -0.0974304 -0.117557585 -0.07605729 -0.12630959
000370 43 cc 23 be a0 57 d5 bd 1e 9e 90 bc 04 bd 0d bd
       -0.15995888 -0.10417104 -0.017653521 -0.034604087
000380 5d 58 98 3e d5 26 41 be 1d 87 e7 bc 1c 73 bf 3e
       0.29754916 -0.1886247 -0.02826267 0.3739251
000390 ae a6 ca bf b0 88 91 bd 65 14 b3 3e fe 72 71 be
       -1.5832117 -0.07106149 0.34976497 -0.23579022
0003a0 da 3b 68 bc 39 1c 03 3e e6 1d 9b 3c a4 b3 81 3d
       -0.014174426 0.12803735 0.018935155 0.06333092
0003b0 71 09 c7 bc 1c 06 88 3d 66 0f 8c 3d d5 e9 69 3d
       -0.024296494 0.0664179 0.068388745 0.057107765
0003c0 64 45 2c bc 95 98 28 bd 1b f0 46 be d9 66 65 3d
       -0.010514591 -0.04116114 -0.1942753 0.056006286
0003d0 60 5e ec 3c 13 d8 7e 3d 46 4f a4 3d 62 f7 7b 3d
       0.028853595 0.062217783 0.08022933 0.06151522
0003e0 16 e8 54 bc 0f 6c a8 3d b6 2b ce 3d 95 76 b0 bd
       -0.012994787 0.082237355 0.10066931 -0.08616368
0003f0 05 3c 9d bc 3f 3a a1 bd 3a 38 0e bd 75 80 68 bd
       -0.019193659 -0.07872438 -0.03472159 -0.05676313

decoder.0.bias f4 [32]
000000 07 2c ef bd d2 e4 ac bd cb e8 9e 3e 12 01 85 be
       -0.116783194 -0.084420815 0.31036982 -0.2597738
000010 a6 b6 ab bd 35 b9 6d 3e df 91 27 3d ba 22 04 3e
       -0.08384447 0.23215182 0.040910598 0.12903872
000020 fc fe ec 3d be e6 3d be 4f 55 20 be 48 fd 49 be
       0.11572072 -0.18545052 -0.15657543 -0.19725525
000030 2c b3 19 3e 81 86 1a 3c e6 62 8c 3d 58 9c 2d 3e
       0.15009755 0.009431482 0.06854801 0.16954172
000040 45 3c 84 3e 29 65 e5 bd 35 41 b4 bd da 42 fe 3d
       0.25827232 -0.112009354 -0.088015 0.12415095
000050 18 91 15 3f a1 e6 77 be 3a a6 38 3e 13 28 ef 3d
       0.5842452 -0.24209072 0.1803216 0.116775654
000060 35 f7 82 3e 75 45 6f be eb 12 ff 3c e5 fd 15 3e
       0.2557923 -0.2336634 0.03113695 0.14647634
000070 ad c5 8b 3e 2b 61 32 bd 5a 6b 5a bc c9 41 11 3e
       0.27299252 -0.043549698 -0.013331259 0.14185251

decoder.3.weight f4 [32, 16, 3, 3]
000000 2a 2e 58 bd e9 4c ab bd 8e f5 10 be ea ad 1b 3b
       -0.0527784 -0.08364279 -0.14156172 0.0023754784
000010 8e 64 a2 bd 01 c4 ee bd f8 d9 55 3d 5e 3b 38 3d
       -0.079293355 -0.116584785 0.052209824 0.044978492
000020 97 57 6a bd a3 b0 9f bc 0b 42 eb bc 0f 9c 91 3a
       -0.05721244 -0.019493407 -0.028718015 0.0011109131
000030 ff cb 51 bd b8 96 b3 bd ae f8 01 bb 76 f1 e0 bc
       -0.051219936 -0.08768982 -0.0019832063 -0.027458888
000040 11 76 4e bd 1e 45 b7 3b fc 35 a7 3d ae ff 14 3d
       -0.050405566 0.005592956 0.081645936 0.036376648
000050 b8 92 84 3e 10 8a 90 bd 9c 48 aa bd 6b 8e 98 3e
       0.25893188 -0.07057583 -0.083146304 0.29796156
000060 df 43 ab bd bf 79 63 be 3a 14 22 3e c0 1a 02 3d
       -0.08362555 -0.22214411 0.15828028 0.031763792
000070 77 e0 9f 3d af e7 2c 3b d4 9b cd 3d 38 07 2b 3e
       0.07806485 0.0026383211 0.100394875 0.16701972
000080 7b 72 48 3d 35 fd ec 3d bd da 37 3e 2a 1f 90 3d
       0.048937302 0.11571733 0.17954536 0.07037194
000090 0d 07 74 bb f6 79 38 39 9d ce e2 3d ef 05 bd bc
       -0.0037235648 0.00017593041 0.110745646 -0.023074118
0000a0 e9 82 a9 bd 9a 3b ee 3d bc 56 79 bc 48 bd f6 bc
       -0.08276922 0.11632462 -0.015218433 -0.030119553
0000b0 4b e9 8d 3d fe 08 b1 3c 1d 08 fd 3c 56 2a 0c 3e
       0.06929263 0.021610733 0.030887658 0.13688025
0000c0 d3 d7 11 3d 7c 31 8f 3d d8 fd 1f 3e d6 93 86 3c
       0.035606217 0.0699186 0.15624177 0.016427916
0000d0 74 9c dc 3b 2f 6c ca 3d 1e 5a 85 3c ff 38 9a bc
       0.006732518 0.09883916 0.016278323 -0.018826006
0000e0 dc 04 06 3e b6 4b f8 bd 2c 00 89 bd 24 0c ac 3d
       0.13087791 -0.12123816 -0.06689486 0.08400753
0000f0 22 bb cc bd fc 1e ab bd 0b 93 a6 3d 53 50 26 3d
       -0.0999663 -0.08355519 0.08133515 0.040603947
000100 7b 16 d2 3d 46 16 5e 3d ab 19 a8 3d dd 57 50 3e
       0.10258194 0.05422046 0.08208021 0.20346017
000110 30 3c d8 3d ca ed 73 3d 93 94 d6 3d ce 07 cc 3d
       0.10558355 0.059552945 0.10477557 0.09962426
000120 84 48 62 3c fd e0 15 3d 2d ce 9d 3c 2d d4 84 3d
       0.013811234 0.03659152 0.019263351 0.06485782
000130 ad 5f cb 3d eb c5 38 3d b9 eb a6 3d a3 b8 09 3e
       0.09930358 0.045110624 0.08150429 0.1344934
000140 f0 35 a9 3d 4e 4d d1 bb 9d 13 8a 3c 20 ef 51 3e
       0.08262241 -0.0063873893 0.016855055 0.20501375
000150 bd bd 8b bd 20 84 05 bd d4 0b 2c 3e 85 12 8f bd
       -0.06823299 -0.032596707 0.16801387 -0.06985954
000160 39 28 9e bd be d4 dd 3d 73 27 62 bc a9 c4 2b 3a
       -0.077225156 0.10831593 -0.013803351 0.0006552437
000170 f4 b2 4f 3d 98 ea 23 bd 6c ec 42 bd e5 ec fa 3c
       0.050707772 -0.040018648 -0.04758875 0.030630538
000180 a7 9e 11 bd 01 04 da bd d1 34 a5 3b b3 37 a6 3c
       -0.035551693 -0.10645295 0.0050416966 0.020290231
000190 fa 3c 50 3d ce 77 1e 3d 82 38 94 3d e1 e8 f8 3d
       0.0508394 0.038688473 0.072373405 0.12153793
0001a0 4c 24 83 3d 6e 58 99 3d 5f 26 00 3e 92 72 c8 3d
       0.064034075 0.0748757 0.12514637 0.097874776
0001b0 6a e6 51 bb 0c 38 ce 3c 8e 5e c2 3c 9c ed 2b bc
       -0.0032028207 0.02517321 0.023726728 -0.010493662
0001c0 2c c6 14 bd 68 80 76 3c ae db 02 bd 79 30 4f bd
       -0.036321804 0.015045263 -0.031947784 -0.050583337
0001d0 d9 a8 1b 3b 52 29 66 3c 86 a5 22 bb e2 68 06 3e
       0.0023751764 0.0140479375 -0.0024817898 0.13125947
0001e0 6f b1 cc bc 6b 82 17 3d 94 77 28 3e 51 47 91 bc
       -0.02498695 0.03698961 0.16451865 -0.017734202
0001f0 b2 2c bb bc a7 f4 bf 3d ec b0 e5 3c de 76 60 3d
       -0.02284846 0.093728356 0.028038464 0.05480086
000200 8b 62 98 3c dc a1 00 3e 16 05 44 3e 50 58 8e 3d
       0.018601676 0.12561744 0.19142565 0.06950438
000210 92 01 d1 3d 8b 7d 1c 3e 8a c0 bb 3d cb 99 17 bd
       0.10205378 0.15282266 0.09167583 -0.037011903
000220 00 ed a2 bd cf 91 47 be 82 b8 e5 3c 1a 16 24 bd
       -0.079553604 -0.19489215 0.028042082 -0.04006014
000230 8d 1d 4c be 99 3f 5c 3d dc 10 e4 3d 54 78 6c bd
       -0.19933148 0.05377159 0.11136028 -0.05773194
000240 d5 ed 43 bd a6 79 b4 bd ca 1e 05 be 1a ca 39 bd
       -0.047834236 -0.08812265 -0.13000026 -0.045358755
000250 9a c3 b7 bd ef 50 05 be 76 8e 28 3e fb d2 56 3e
       -0.08972855 -0.13019155 0.16460595 0.2097892
000260 81 35 c4 3d a3 50 b0 3c 37 b3 1d bc 54 cc 17 3d
       0.095805176 0.021522826 -0.009625248 0.037060097
000270 29 f4 3d bd c2 f1 c1 bd 26 9f a8 bc 30 b1 32 bd
       -0.046375427 -0.0946994 -0.0205837 -0.04362601
000280 5f 5a ab bd 35 a3 c8 bc 66 42 c9 3d 15 45 55 3e
       -0.08366846 -0.024491886 0.098271176 0.20827134
000290 48 48 39 3e 1d ff 05 3b 29 03 5e 3d a2 d0 64 3e
       0.1809398 0.0020446249 0.054202233 0.22345212
0002a0 7d b6 37 be b6 0d 38 be 59 65 22 bd 24 75 92 3c
       -0.17940708 -0.1797398 -0.039647434 0.017878123
0002b0 35 63 00 3d 30 cc 76 3c f9 67 89 3d 87 6a dc 3d
       0.03134461 0.0150633305 0.06709284 0.10762506
0002c0 08 8d 1a 3d 81 8a 32 3e 28 cc 81 3e cf 2c 30 3e
       0.037732154 0.17435648 0.2535107 0.17204593
0002d0 55 ec 9a 3c 16 76 23 3d 0e f8 88 3d 76 92 6d bc
       0.01891152 0.039907537 0.06687938 -0.014500251
0002e0 e3 a2 e5 bc 52 c0 85 3d b7 76 58 bd 4e e0 b3 bd
       -0.028031772 0.06530823 -0.05284759 -0.08783017
0002f0 3b b8 36 bd b5 23 c6 3d a9 64 3b 3e 49 84 34 3e
       -0.04460929 0.09674779 0.18300118 0.17628588
000300 f2 63 75 3d 48 0e 20 3e 52 a7 1e 3e b0 ed 73 bb
       0.05990977 0.15630448 0.15493515 -0.003722053
000310 d5 c6 0b 3d 02 0b 3f 3d 4d 9e 04 3d 8f 37 12 3d
       0.034125168 0.046641357 0.03237753 0.035697516
000320 8a 70 b4 3d 9f 10 80 bd 0d f5 86 bd 01 18 30 3d
       0.088105276 -0.0625317 -0.065897085 0.042991642
000330 79 1f 23 be a9 ab fc bd f3 74 77 bd 28 fc a7 3d
       -0.15929975 -0.12337429 -0.060414266 0.08202392
000340 93 d4 61 3e 6b fc 03 3e c0 39 23 3e 90 35 9b 3e
       0.22053747 0.12889259 0.15939999 0.30314302
000350 85 73 54 3e 65 d5 b8 3d 4d e7 34 3e 2e c5 1c 3e
       0.20747192 0.09025077 0.17666359 0.15309593
000360 c3 89 1e 3b 8e d0 8e 3c 38 b9 e8 3b 6c 24 1d 3d
       0.0024191 0.017433431 0.007102158 0.038364813
000370 83 6b 9b 3d 09 6c b9 3c 90 a0 d8 3d 45 ef 3b 3e
       0.075888656 0.022634523 0.105775 0.18352993
000380 a3 22 dc 3d d4 ab 91 3c 32 da 93 3d 5c eb 35 3e
       0.10748794 0.01778213 0.07219352 0.17765564
000390 d1 68 2a bd 21 be be bc f4 d8 35 3e f7 4a ff bd
       -0.041603867 -0.02328402 0.17758542 -0.1246547
0003a0 57 2e ea bd cd ad 75 bb 79 97 dd 3c d0 80 87 3d
       -0.1143462 -0.0037487627 0.027049767 0.06616366
0003b0 51 14 0e 3d 3e 87 e8 bc ad 02 62 bd 2c 56 2c 3c
       0.034687344 -0.028384801 -0.055178333 0.010518592
0003c0 a0 40 85 bd ba a4 09 be 9b af 4e bd d4 ce e5 3b
       -0.06506467 -0.13441744 -0.05046044 0.007013181
0003d0 05 0f d9 3c 7b d6 d9 3b 5d ac 82 3d 64 4f f7 3d
       0.02649642 0.0066478825 0.06380532 0.120756894
0003e0 59 18 4d 3d ec e8 e5 3d ba 6e 2f 3e b2 d2 dc 3d
       0.050072048 0.11226067 0.17132083 0.107823744
0003f0 fc 66 9a 3c 47 16 88 3d 6a a9 b3 3c a0 9c d3 bc
       0.018847935 0.06644874 0.021931369 -0.02583152

decoder.3.bias f4 [16]
000000 5c 4f 3e 3f 3a a6 c4 3e 74 15 3e 3f 05 79 f4 3e
       0.7433984 0.3840807 0.74251485 0.4774858
000010 a9 03 00 3f bd 22 12 3f b4 d2 a2 3e 88 b0 88 3e
       0.50005585 0.57084256 0.3180138 0.26697183
000020 58 52 c1 3e 7b 86 ef 3e 79 bc b6 3e 7b ec b4 3e
       0.37758136 0.46782288 0.35690668 0.3533667
000030 51 6b ff 3e 3a 07 28 3f 28 15 9f 3e a1 9c 3a 3f
       0.49886563 0.65636027 0.31070828 0.72895247

decoder.6.weight f4 [16, 3, 3, 3]
000000 83 e4 53 bb aa 89 59 bc 5e 1a 02 bc c1 80 77 bc
       -0.0032332249 -0.013277451 -0.007940857 -0.015106381
000010 c3 5a 52 bd ea 46 b9 bc 78 d7 1a bc 45 20 c6 bc
       -0.05135609 -0.022616822 -0.009450786 -0.02418531
000020 75 f8 6b bc 59 87 6b bd 5a 2d fb bd 4b a3 88 bd
       -0.0144024985 -0.057502124 -0.122645095 -0.06671771
000030 25 ac ff bd d0 00 71 be 69 de 09 be 5c 11 8e bd
       -0.12484006 -0.23535466 -0.13463749 -0.06936905
000040 83 36 0c be ed 35 a1 bd e9 81 28 bd 7a 26 d1 bd
       -0.1369267 -0.07871614 -0.041139517 -0.10212417
000050 83 22 59 bd 62 12 d9 bd cc f1 7b be 49 6e f8 bd
       -0.05301143 -0.10599209 -0.24603957 -0.1213041
000060 c2 24 6d bd ce cc fd bd 38 f7 8f bd c5 00 0a 3b
       -0.057896383 -0.12392579 -0.07029575 0.0021057588
000070 f7 3d c0 3b 64 38 57 3b 9e 53 b5 3b d4 44 63 3c
       0.005866762 0.0032840008 0.0055336496 0.01387139
000080 0b 66 02 3c 32 f2 6b 3b 79 47 0a 3c 94 2a 9f 3b
       0.007958899 0.0036002514 0.008439892 0.0048573706
000090 ca 11 ef 3b 6a 95 c6 3c 88 55 16 3c c2 f0 cb 3c
       0.007295822 0.024241168 0.009175666 0.024895076
0000a0 e8 ac 83 3d 72 cc e6 3c d3 5f 3a 3c d6 f1 f0 3c
       0.064294636 0.028173659 0.011375385 0.029412191
0000b0 39 25 5a 3c d1 a0 68 3d f7 c9 fe 3d ae 68 85 3d
       0.013314539 0.05679399 0.124408655 0.06514107
0000c0 5b fe f9 3d c0 98 80 3e 84 62 07 3e 4e 01 82 3d
       0.122067176 0.2511654 0.13221174 0.06347905
0000d0 2b 3c 06 3e 80 bf 92 3d 8e 0e d6 3c 7c cc 64 3d
       0.1310889 0.07165432 0.026129987 0.055859074
0000e0 5c 33 09 3d c8 b6 63 3d f0 da ec 3d 58 2e 87 3d
       0.033496246 0.055594236 0.115651965 0.06600636
0000f0 2d 36 ff 3c ea 4f 80 3d b5 1c 1e 3d a0 78 17 3d
       0.031153763 0.062652424 0.038601596 0.03698027
000100 55 c5 a1 3d 33 d2 36 3d 41 a2 a3 3d 36 58 24 3e
       0.07898966 0.044634055 0.07989932 0.16049275
000110 84 76 b9 3d f4 0e 32 3d 67 c9 b3 3d 5b 1b 55 3d
       0.09055808 0.04347129 0.08778649 0.05202804
000120 92 8c e0 3c 3a a6 73 3d ef 53 0d 3d 37 69 74 3d
       0.02741078 0.059484698 0.034503873 0.059670653
000130 76 4f 07 3e d2 20 8f 3d 26 84 07 3d ea a6 88 3d
       0.13213906 0.06988682 0.03308501 0.06672461
000140 f0 55 23 3d 15 96 aa bd dd c8 40 be db 5d cd bd
       0.03987688 -0.08329407 -0.18826623 -0.10027667
000150 5b cf 42 be 26 73 c0 be 2f 4f 53 be da 72 d2 bd
       -0.19024412 -0.3758785 -0.20635675 -0.102758124
000160 10 e8 54 be 1e a5 f3 bd bc 5b 9b bc 79 e8 3a bd
       -0.2079165 -0.11896728 -0.01896464 -0.04563186
000170 8e 72 cd bc 4a b6 3b bd 7f dc d8 bd 99 fa 5a bd
       -0.025079038 -0.04582814 -0.10588931 -0.053461645
000180 c4 16 ca bc 3a 33 5d bd ca 32 fa bc b8 a6 42 3b
       -0.024669059 -0.05400393 -0.030541796 0.0029701423
000190 5d 4e d4 3b 95 56 2a 3b 22 b5 a1 3b 63 47 e6 3b
       0.006479068 0.0025991548 0.004934923 0.007027553
0001a0 24 41 23 3b c9 e8 79 3a 04 d9 ae 3a 6e af 1e 3a
       0.0024910653 0.0009533284 0.0013339822 0.0006053363
0001b0 23 42 7d 3d f5 b3 0f 3e 42 43 9c 3d 1a 78 0b 3e
       0.06183065 0.14033492 0.07630016 0.13620034
0001c0 bc 72 92 3e 76 81 1b 3e dd 87 8f 3d b8 3e 18 3e
       0.2860316 0.15186104 0.07008336 0.14867675
0001d0 41 f5 ac 3d 7b 85 26 3c aa 47 bf 3c 1a 9e 58 3c
       0.08445216 0.01016366 0.023349602 0.013221288
0001e0 2f 01 b4 3c 3f 2a 58 3d fa 09 d6 3c ad f0 42 3c
       0.02197322 0.052774664 0.026127804 0.011898202
0001f0 30 75 d2 3c d4 52 78 3c 08 89 ef bb 33 09 47 bc
       0.025690645 0.0151564665 -0.0073100366 -0.012148189
000200 22 c9 d4 bb 27 5a 4c bc b9 ec d9 bc c2 0f 2f bc
       -0.0064937035 -0.012472666 -0.026602136 -0.010684909
000210 c5 1b c5 bb 21 ab 27 bc f4 9a a5 bb 5d fc f5 3c
       -0.0060152733 -0.010233671 -0.0050538722 0.030027563
000220 09 af 8c 3d da 39 19 3d 63 ae 89 3d 78 3c 15 3e
       0.06869323 0.037408687 0.06722715 0.14573848
000230 78 3e 9d 3d 61 2a 16 3d 7a 02 9d 3d ce d9 34 3d
       0.076779306 0.03666151 0.07666488 0.044153027
000240 0a 67 1b 3d 72 21 ad 3d ca 0d 32 3d c1 9e ab 3d
       0.037940063 0.08453645 0.04347018 0.08379889
000250 b4 d9 2e 3e 0c 5d ba 3d a1 09 35 3d 65 de bb 3d
       0.17075235 0.090997785 0.044198636 0.09173278
000260 42 ba 4d 3d 8b b1 48 3b 13 dc 45 3c c9 a9 85 3b
       0.050226457 0.0030623402 0.012076396 0.004079078
000270 9a d0 4a 3c ff 2f 0e 3d 5d 4a 75 3c 1c 42 da 3b
       0.012378836 0.03471374 0.014971343 0.006660713
000280 d5 82 89 3c 61 5f f7 3b 48 7c 71 3d 75 0c 04 3e
       0.016786018 0.007549212 0.058956414 0.12895377
000290 89 bb 8b 3d bc 81 02 3e dd 85 86 3e 86 28 0d 3e
       0.06822879 0.12744802 0.26274005 0.1378499
0002a0 78 06 82 3d e8 02 09 3e ab fa 93 3d e3 ea 00 3c
       0.0634889 0.13380015 0.072255455 0.007868501
0002b0 c2 37 8f 3c b5 a9 1a 3c d6 75 8d 3c 1b a4 29 3d
       0.017482642 0.009439875 0.017268103 0.04141627
0002c0 61 7c 9f 3c 3b 49 0c 3c 66 71 99 3c 5d 84 27 3c
       0.019468488 0.008562381 0.01873083 0.010224429
0002d0 79 26 99 bb 6b bf 20 bc 3a 88 af bb 0e 17 13 bc
       -0.0046737758 -0.009811263 -0.0053568156 -0.008977665
0002e0 a8 83 b5 bc c1 da 12 bc cd 6f 86 bb 1c 95 0e bc
       -0.022157505 -0.008963288 -0.004102683 -0.008702543
0002f0 6f a8 99 bb 35 59 a1 3b a7 a7 95 3c d2 35 01 3c
       -0.0046892683 0.0049239644 0.01826842 0.007886367
000300 c7 15 98 3c 6e ce 4f 3d 4a 08 c0 3c 51 11 0e 3c
       0.018565072 0.050733976 0.023441453 0.008671121
000310 ea 78 c1 3c 85 97 38 3c 21 e6 56 3d 46 87 d8 3d
       0.023617227 0.011266594 0.05246556 0.10572676
000320 10 20 67 3d ec 1b d7 3d 2f 8d 4d 3e 01 48 e2 3d
       0.05642706 0.105033726 0.20073389 0.1104889
000330 e1 77 66 3d e0 3d e2 3d 81 50 77 3d d0 5b 0e 3a
       0.05626667 0.11046958 0.06037951 0.0005430551
000340 6b 15 ee 3b 7d a2 d8 3a 63 93 ed 3b f9 59 d9 3c
       0.007265737 0.0016527917 0.007250236 0.02653216
000350 13 32 26 3c a8 7e 16 3b b5 48 25 3c 09 6a 50 3b
       0.010143775 0.0022963677 0.0100881355 0.0031801483
000360 dd 95 fd 3a 74 88 5b 3b d5 7c 44 3a e9 fd 30 3b
       0.0019347031 0.003349808 0.0007495408 0.002700681
000370 bb 4b 9b 3b f0 c7 70 39 ef c1 77 38 53 01 f2 b9
       0.0047392524 0.00022962666 5.9070004e-05 -0.00046158824
000380 7e 10 97 ba 78 c6 4d bc 1e 28 0d bd e4 cb 95 bc
       -0.0011525301 -0.012559526 -0.034462087 -0.0182857
000390 d1 5c 0d bd 52 dd ab bd 7f e4 29 bd f8 3d 8e bc
       -0.034512345 -0.08391823 -0.041477676 -0.017363533
0003a0 a1 c2 2a bd c8 22 bb bc 32 58 b7 bd 7b c8 5a be
       -0.04168952 -0.022843733 -0.08952369 -0.2136554
0003b0 e2 01 e1 bd 8a af 5d be e7 48 dd be e0 ef 70 be
       -0.10986687 -0.21648994 -0.43219683 -0.23529005
0003c0 ee f4 e9 bd aa 42 75 be 40 05 09 be bd 1d be b9
       -0.1142367 -0.23951212 -0.13380909 -0.0003626178
0003d0 c7 3b 39 3b a5 ab 2c 3b 60 3f 56 3b a2 62 3d 3c
       0.002826439 0.0026347425 0.0032691583 0.01155916
0003e0 69 ad fc 3b 29 55 d1 3a c6 33 c6 3b 8d 69 95 3b
       0.007711102 0.0015970814 0.0060486523 0.004559702
0003f0 fd c3 82 3c 69 9e 29 3d 3e 3f c1 3c c6 1d 22 3d
       0.015962595 0.041410837 0.023589727 0.039579175

decoder.6.bias f4 [3]
000000 47 38 a8 be 56 0d a7 be 3b 2a 89 be
       -0.32855436 -0.32627362 -0.26790032
